…
        "id": "Jmm09Yjz8Eib",
        "outputId": "64460bea-618b-4582-fd71-62a7f46a3bde"
      },
      "source": [
        "CNNmodel.summary()"
      ],
      "execution_count": null,
      "outputs": [
        {
          "output_type": "stream",
          "text": [
            "Model: \"sequential_8\"\n",
            "_________________________________________________________________\n",
            "Layer (type)                 Output Shape              Param #   \n",
            "=================================================================\n",
            "conv2d_48 (Conv2D)           (None, 198, 198, 16)      448       \n",
            "_________________________________________________________________\n",
            "max_pooling2d_48 (MaxPooling (None, 99, 99, 16)        0         \n",
            "_________________________________________________________________\n",
            "batch_normalization_9 (Batch (None, 99, 99, 16)        64        \n",
            "_________________________________________________________________\n",
            "conv2d_49 (Conv2D)           (None, 97, 97, 64)        9280      \n",
            "_________________________________________________________________\n",
            "max_pooling2d_49 (MaxPooling (None, 48, 48, 64)        0         \n",
            "_________________________________________________________________\n",
            "dropout_48 (Dropout)         (None, 48, 48, 64)        0         \n",
            "_________________________________________________________________\n",
            "conv2d_50 (Conv2D)           (None, 46, 46, 64)        36928     \n",
            "_________________________________________________________________\n",
            "max_pooling2d_50 (MaxPooling (None, 23, 23, 64)        0         \n",
            "_________________________________________________________________\n",
            "dropout_49 (Dropout)         (None, 23, 23, 64)        0         \n",
            "_________________________________________________________________\n",
            "conv2d_51 (Conv2D)           (None, 21, 21, 64)        36928     \n",
            "_________________________________________________________________\n",
            "max_pooling2d_51 (MaxPooling (None, 10, 10, 64)        0         \n",
            "_________________________________________________________________\n",
            "dropout_50 (Dropout)         (None, 10, 10, 64)        0         \n",
            "_________________________________________________________________\n",
            "conv2d_52 (Conv2D)           (None, 8, 8, 64)          36928     \n",
            "_________________________________________________________________\n",
            "max_pooling2d_52 (MaxPooling (None, 4, 4, 64)          0         \n",
            "_________________________________________________________________\n",
            "dropout_51 (Dropout)         (None, 4, 4, 64)          0         \n",
            "_________________________________________________________________\n",
            "conv2d_53 (Conv2D)           (None, 2, 2, 128)         73856     \n",
            "_________________________________________________________________\n",
            "max_pooling2d_53 (MaxPooling (None, 1, 1, 128)         0         \n",
            "_________________________________________________________________\n",
            "dropout_52 (Dropout)         (None, 1, 1, 128)         0         \n",
            "_________________________________________________________________\n",
            "flatten_8 (Flatten)          (None, 128)               0         \n",
            "_________________________________________________________________\n",
            "dense_24 (Dense)             (None, 128)               16512     \n",
            "_________________________________________________________________\n",
            "dropout_53 (Dropout)         (None, 128)               0         \n",
            "_________________________________________________________________\n",
            "dense_25 (Dense)             (None, 64)                8256      \n",
            "_________________________________________________________________\n",
            "dropout_54 (Dropout)         (None, 64)                0         \n",
            "_________________________________________________________________\n",
            "dense_26 (Dense)             (None, 4)                 260       \n",
            "=================================================================\n",
            "Total params: 219,460\n",
            "Trainable params: 219,428\n",
            "Non-trainable params: 32\n",
            "_________________________________________________________________\n"
          ],
          "name": "stdout"
        }
      ]
    },
    {
      "cell_type": "code",
      "metadata": {
…
